<?xml version="1.0" ?>
<net batch="1" name="cursor-estimation-0001" version="6">
	<layers>
		<layer id="0" name="data" precision="FP32" type="Input">
			<output>
				<port id="0">
					<dim>1</dim>
					<dim>11</dim>
				</port>
			</output>
		</layer>
		<layer id="1" name="dense/MatMul" precision="FP32" type="FullyConnected">
			<data out-size="1024"/>
			<input>
				<port id="0">
					<dim>1</dim>
					<dim>11</dim>
				</port>
			</input>
			<output>
				<port id="3">
					<dim>1</dim>
					<dim>1024</dim>
				</port>
			</output>
			<blobs>
				<weights offset="0" size="45056"/>
				<biases offset="45056" size="4096"/>
			</blobs>
		</layer>
		<layer id="2" name="dense/Relu" precision="FP32" type="ReLU">
			<input>
				<port id="0">
					<dim>1</dim>
					<dim>1024</dim>
				</port>
			</input>
			<output>
				<port id="1">
					<dim>1</dim>
					<dim>1024</dim>
				</port>
			</output>
		</layer>
		<layer id="3" name="dense_1/MatMul" precision="FP32" type="FullyConnected">
			<data out-size="612"/>
			<input>
				<port id="0">
					<dim>1</dim>
					<dim>1024</dim>
				</port>
			</input>
			<output>
				<port id="3">
					<dim>1</dim>
					<dim>612</dim>
				</port>
			</output>
			<blobs>
				<weights offset="49152" size="2506752"/>
				<biases offset="2555904" size="2448"/>
			</blobs>
		</layer>
		<layer id="4" name="dense_2/MatMul" precision="FP32" type="FullyConnected">
			<data out-size="422"/>
			<input>
				<port id="0">
					<dim>1</dim>
					<dim>612</dim>
				</port>
			</input>
			<output>
				<port id="3">
					<dim>1</dim>
					<dim>422</dim>
				</port>
			</output>
			<blobs>
				<weights offset="2558352" size="1033056"/>
				<biases offset="3591408" size="1688"/>
			</blobs>
		</layer>
		<layer id="5" name="dense_2/Relu" precision="FP32" type="ReLU">
			<input>
				<port id="0">
					<dim>1</dim>
					<dim>422</dim>
				</port>
			</input>
			<output>
				<port id="1">
					<dim>1</dim>
					<dim>422</dim>
				</port>
			</output>
		</layer>
		<layer id="6" name="dense_3/MatMul" precision="FP32" type="FullyConnected">
			<data out-size="254"/>
			<input>
				<port id="0">
					<dim>1</dim>
					<dim>422</dim>
				</port>
			</input>
			<output>
				<port id="3">
					<dim>1</dim>
					<dim>254</dim>
				</port>
			</output>
			<blobs>
				<weights offset="3593096" size="428752"/>
				<biases offset="4021848" size="1016"/>
			</blobs>
		</layer>
		<layer id="7" name="dense_3/Relu" precision="FP32" type="ReLU">
			<input>
				<port id="0">
					<dim>1</dim>
					<dim>254</dim>
				</port>
			</input>
			<output>
				<port id="1">
					<dim>1</dim>
					<dim>254</dim>
				</port>
			</output>
		</layer>
		<layer id="8" name="dense_4/MatMul" precision="FP32" type="FullyConnected">
			<data out-size="160"/>
			<input>
				<port id="0">
					<dim>1</dim>
					<dim>254</dim>
				</port>
			</input>
			<output>
				<port id="3">
					<dim>1</dim>
					<dim>160</dim>
				</port>
			</output>
			<blobs>
				<weights offset="4022864" size="162560"/>
				<biases offset="4185424" size="640"/>
			</blobs>
		</layer>
		<layer id="9" name="dense_4/Relu" precision="FP32" type="ReLU">
			<input>
				<port id="0">
					<dim>1</dim>
					<dim>160</dim>
				</port>
			</input>
			<output>
				<port id="1">
					<dim>1</dim>
					<dim>160</dim>
				</port>
			</output>
		</layer>
		<layer id="10" name="dense_5/MatMul" precision="FP32" type="FullyConnected">
			<data out-size="100"/>
			<input>
				<port id="0">
					<dim>1</dim>
					<dim>160</dim>
				</port>
			</input>
			<output>
				<port id="3">
					<dim>1</dim>
					<dim>100</dim>
				</port>
			</output>
			<blobs>
				<weights offset="4186064" size="64000"/>
				<biases offset="4250064" size="400"/>
			</blobs>
		</layer>
		<layer id="11" name="dense_5/Relu" precision="FP32" type="ReLU">
			<input>
				<port id="0">
					<dim>1</dim>
					<dim>100</dim>
				</port>
			</input>
			<output>
				<port id="1">
					<dim>1</dim>
					<dim>100</dim>
				</port>
			</output>
		</layer>
		<layer id="12" name="dense_6/MatMul" precision="FP32" type="FullyConnected">
			<data out-size="60"/>
			<input>
				<port id="0">
					<dim>1</dim>
					<dim>100</dim>
				</port>
			</input>
			<output>
				<port id="3">
					<dim>1</dim>
					<dim>60</dim>
				</port>
			</output>
			<blobs>
				<weights offset="4250464" size="24000"/>
				<biases offset="4274464" size="240"/>
			</blobs>
		</layer>
		<layer id="13" name="dense_6/Relu" precision="FP32" type="ReLU">
			<input>
				<port id="0">
					<dim>1</dim>
					<dim>60</dim>
				</port>
			</input>
			<output>
				<port id="1">
					<dim>1</dim>
					<dim>60</dim>
				</port>
			</output>
		</layer>
		<layer id="14" name="output/MatMul" precision="FP32" type="FullyConnected">
			<data out-size="2"/>
			<input>
				<port id="0">
					<dim>1</dim>
					<dim>60</dim>
				</port>
			</input>
			<output>
				<port id="3">
					<dim>1</dim>
					<dim>2</dim>
				</port>
			</output>
			<blobs>
				<weights offset="4274704" size="480"/>
				<biases offset="4275184" size="8"/>
			</blobs>
		</layer>
	</layers>
	<edges>
		<edge from-layer="0" from-port="0" to-layer="1" to-port="0"/>
		<edge from-layer="1" from-port="3" to-layer="2" to-port="0"/>
		<edge from-layer="2" from-port="1" to-layer="3" to-port="0"/>
		<edge from-layer="3" from-port="3" to-layer="4" to-port="0"/>
		<edge from-layer="4" from-port="3" to-layer="5" to-port="0"/>
		<edge from-layer="5" from-port="1" to-layer="6" to-port="0"/>
		<edge from-layer="6" from-port="3" to-layer="7" to-port="0"/>
		<edge from-layer="7" from-port="1" to-layer="8" to-port="0"/>
		<edge from-layer="8" from-port="3" to-layer="9" to-port="0"/>
		<edge from-layer="9" from-port="1" to-layer="10" to-port="0"/>
		<edge from-layer="10" from-port="3" to-layer="11" to-port="0"/>
		<edge from-layer="11" from-port="1" to-layer="12" to-port="0"/>
		<edge from-layer="12" from-port="3" to-layer="13" to-port="0"/>
		<edge from-layer="13" from-port="1" to-layer="14" to-port="0"/>
	</edges>
	<meta_data>
		<MO_version value="2019.3.0-375-g332562022"/>
		<cli_parameters>
			<blobs_as_inputs value="False"/>
			<data_type value="float"/>
			<disable_nhwc_to_nchw value="False"/>
			<disable_resnet_optimization value="False"/>
			<enable_concat_optimization value="False"/>
			<extensions value="DIR"/>
			<framework value="tf"/>
			<freeze_placeholder_with_value value="{}"/>
			<generate_experimental_IR_V10 value="False"/>
			<input_model value="DIR\cursor-estimation-0001.pb"/>
			<input_model_is_text value="False"/>
			<input_shape value="(1, 11)"/>
			<keep_quantize_ops_in_IR value="False"/>
			<keep_shape_ops value="False"/>
			<log_level value="ERROR"/>
			<mean_scale_values value="{}"/>
			<mean_values value="()"/>
			<move_to_preprocess value="False"/>
			<output_dir value="DIR"/>
			<placeholder_shapes value="[ 1 11]"/>
			<reverse_input_channels value="False"/>
			<scale_values value="()"/>
			<silent value="False"/>
			<steps value="False"/>
			<version value="False"/>
			<unset unset_cli_parameters="batch, disable_fusing, disable_gfusing, finegrain_fusing, generate_deprecated_IR_V2, input, input_checkpoint, input_meta_graph, model_name, output, saved_model_dir, saved_model_tags, scale, tensorboard_logdir, tensorflow_custom_layer_libraries, tensorflow_custom_operations_config_update, tensorflow_object_detection_api_pipeline_config, tensorflow_operation_patterns, tensorflow_subgraph_patterns, tensorflow_use_custom_operations_config"/>
		</cli_parameters>
	</meta_data>
</net>
